Tasks.pth (torch, 2775 bytes, 6 tensors)

l1.weight f4 [8, 8]
000000 21 1e 09 be 93 c5 32 3f 2b f9 08 be d9 22 1c 3f
       -0.133904 0.69832724 -0.133763 0.60990673
000010 59 5e 09 be c1 5b e9 bd b6 5a 06 be 73 b9 1a 3f
       -0.13414897 -0.11394454 -0.13120541 0.60439223
000020 b2 e9 85 be 3e 9c 2c 3f 5f 55 0b be 95 74 77 3e
       -0.26154858 0.67425907 -0.13606785 0.24165566
000030 3c f6 c0 be 24 13 a1 bd e3 20 c0 be 82 90 3b 3f
       -0.37687862 -0.07864979 -0.3752509 0.73267376
000040 5a 2b 47 3e cc dc 9f 3d c0 23 40 3d 19 04 39 3e
       0.19450131 0.078057855 0.046909094 0.1806797
000050 b4 33 62 be 6c e9 ba bd 0e 88 b2 be ba 77 59 3d
       -0.22090036 -0.09126553 -0.34869426 0.053092696
000060 7d a4 d7 be 99 8d d3 3e 27 63 c7 3d 4c 42 60 3e
       -0.42117682 0.41318968 0.09735709 0.2190029
000070 9f a5 1b 3d bb f5 d7 be 71 b8 19 3d 22 f1 26 3f
       0.037999745 -0.42179665 0.037529413 0.6521169
000080 74 a3 14 3f df df 29 be df da f4 3e 34 2e 29 be
       0.5806191 -0.16589306 0.47823235 -0.16521531
000090 33 d8 16 3f 1d 0b f4 3e 52 ba 1d 3f ce 7a 5b be
       0.58923644 0.4766473 0.6161243 -0.21433565
0000a0 c3 76 a8 be a0 d6 44 3d 6f 81 14 3f ef f0 25 be
       -0.32903108 0.048056245 0.5801 -0.1620519
0000b0 41 b7 a7 3e f8 a9 5b 3e 93 5c 20 3f 8a d7 94 be
       0.32757 0.21451557 0.6264126 -0.29070693
0000c0 28 ce 9f be 3c e4 07 3f 47 c8 9f be ed 63 34 3e
       -0.31211972 0.53082633 -0.31207487 0.17616244
0000d0 ce 79 94 be 19 a0 9f be 33 89 b3 bc 12 96 84 3e
       -0.2899918 -0.31176832 -0.021916008 0.25895745
0000e0 04 0f 2c be 41 c2 61 3d e2 69 f5 bd 37 bf 5f 3d
       -0.16802603 0.055116896 -0.11983086 0.054625716
0000f0 7a ca c8 3e 9c ea 9e bd e6 a3 19 be 7b 62 87 be
       0.39216977 -0.07759592 -0.15003929 -0.26442322

l1.bias f4 [8]
000000 67 fb 08 3e 4b c2 c0 3e 0b 4a 80 be 8c d3 d7 3e
       0.13377152 0.37648234 -0.2505649 0.42153585
000010 47 13 29 3e 46 bb 90 3e 2c ce 9f 3e 59 45 6d bd
       0.1651126 0.28267878 0.31211984 -0.057927463

l2.weight f4 [8, 8]
000000 a5 1c df be 49 6f 43 be ac 22 28 be 44 b9 06 3e
       -0.43576542 -0.1908542 -0.16419476 0.1315661
000010 b3 fa 80 3f 91 46 52 3f 06 df 55 be 3b 2d 8c 3c
       1.0076507 0.82138926 -0.20885858 0.017111411
000020 89 aa 5c 3f 2d 8a 59 3f ec eb e0 3d 59 14 08 3f
       0.86197716 0.84976465 0.109824985 0.5315605
000030 9e 09 f3 be fe 44 5e be d4 67 02 3f 48 10 74 bd
       -0.47468275 -0.21706006 0.5093968 -0.05958584
000040 4e 0c 26 bf 70 20 8f 3e 94 c7 d5 bd 75 86 21 be
       -0.64862525 0.27954435 -0.10438457 -0.15773948
000050 1e 82 85 3f c3 dd 21 3f e9 1a ae be a7 ff cd 3c
       1.0430334 0.63229007 -0.34004906 0.025146319
000060 34 6b 9f 3d 8a 63 45 be 4a c2 68 3e 4e d3 38 3e
       0.07784119 -0.19276252 0.22730365 0.18049356
000070 b8 70 06 be cb 88 a5 be 29 ed 88 be f8 ec a2 be
       -0.13128936 -0.32330927 -0.2674344 -0.31821418
000080 54 3d c2 be 62 7d 67 be a1 52 5b 3e 8f 09 d0 bd
       -0.37937415 -0.22606423 0.21418239 -0.10158073
000090 75 c1 6a 3f 21 a1 71 3e c8 5c a1 be b8 ea 14 3e
       0.9170144 0.23596622 -0.315161 0.14542663
0000a0 fe 0e ad be 44 4a 87 3e 0e 59 04 be e8 73 ec be
       -0.338005 0.26423848 -0.12924597 -0.4618218
0000b0 4d c5 24 3f 29 19 0c 3e 68 ae 20 bd 40 3d 37 3e
       0.6436356 0.13681473 -0.039228827 0.17894459
0000c0 2a b1 3e 3f dc 7a 3d 3f 50 34 db 3c 11 30 21 3f
       0.7448908 0.74015594 0.026758343 0.6296397
0000d0 ac 6d 10 bf 0d f5 6b 3c 58 b7 39 3f 8f 1f 68 be
       -0.56417346 0.014401686 0.72545385 -0.22668289
0000e0 9e 52 5d 3f 1c a2 46 3f 40 5a c1 bc e7 6e 07 3f
       0.8645419 0.7759111 -0.023602605 0.529036
0000f0 fd f9 3b bf 34 d8 6a be 60 9a 65 3e d8 40 c3 be
       -0.73428327 -0.22934037 0.2242217 -0.3813541

l2.bias f4 [8]
000000 10 9f b7 3e ed 5c 8b 3e a2 9b da 3e 28 bd 69 bd
       0.35863543 0.27219334 0.42696863 -0.05706516
000010 9f c0 f7 3e f5 0e c1 3e d4 e5 76 3e 8b 48 ba 3e
       0.48389146 0.37706724 0.2411111 0.3638347

l3.weight f4 [2, 8]
000000 4f 92 93 3f ae 8f 91 be fd 61 12 3f 00 6c a6 3c
       1.1529025 -0.2842993 0.5718077 0.02031517
000010 35 2a 40 3f cf a5 37 3f 3f 27 90 be 1a bd 2f bf
       0.750644 0.7173738 -0.28154942 -0.6864792
000020 49 59 85 bf 58 c5 a5 3e ec 0e 4d bf 80 00 d9 3b
       -1.0417873 0.32377124 -0.80100894 0.006622374
000030 fc 25 43 bf 85 a2 0f bf 26 8e cc 3e b5 00 4d 3f
       -0.76229835 -0.5610736 0.399522 0.80079204

l3.bias f4 [2]
000000 0a b6 29 be 46 fc 49 bd
       -0.16573349 -0.049312852
